Layer (type)                 Output Shape              Param #   
=================================================================
conv2d_1 (Conv2D)            (None, 32, 60, 122)       320       
_________________________________________________________________
max_pooling2d_1 (MaxPooling2 (None, 32, 30, 61)        0         
_________________________________________________________________
dropout_1 (Dropout)          (None, 32, 30, 61)        0         
_________________________________________________________________
conv2d_2 (Conv2D)            (None, 32, 30, 61)        9248      
_________________________________________________________________
max_pooling2d_2 (MaxPooling2 (None, 32, 15, 30)        0         
_________________________________________________________________
dropout_2 (Dropout)          (None, 32, 15, 30)        0         
_________________________________________________________________
conv2d_3 (Conv2D)            (None, 32, 15, 30)        9248      
_________________________________________________________________
max_pooling2d_3 (MaxPooling2 (None, 32, 7, 15)         0         
_________________________________________________________________
dropout_3 (Dropout)          (None, 32, 7, 15)         0         
_________________________________________________________________
conv2d_4 (Conv2D)            (None, 64, 7, 15)         18496     
_________________________________________________________________
max_pooling2d_4 (MaxPooling2 (None, 64, 3, 7)          0         
_________________________________________________________________
dropout_4 (Dropout)          (None, 64, 3, 7)          0         
_________________________________________________________________
flatten_1 (Flatten)          (None, 1344)              0         
_________________________________________________________________
dense_1 (Dense)              (None, 256)               344320    
_________________________________________________________________
dense_2 (Dense)              (None, 128)               32896     
_________________________________________________________________
dropout_5 (Dropout)          (None, 128)               0         
_________________________________________________________________
dense_3 (Dense)              (None, 5)                 645       
=================================================================
Total params: 415,173
Trainable params: 415,173
Non-trainable params: 0
_________________________________________________________________
took 87.56540846824646 seconds
Train on 7200 samples, validate on 1800 samples
Epoch 1/5
 - 9s - loss: 1.0303 - acc: 0.6139 - val_loss: 0.1776 - val_acc: 0.9556
Epoch 2/5
 - 7s - loss: 0.1850 - acc: 0.9368 - val_loss: 0.0566 - val_acc: 0.9850
…
