_________________________________________________________________
Layer (type)                 Output Shape              Param #   
=================================================================
conv2d_1 (Conv2D)            (None, 32, 28, 28)        832       
_________________________________________________________________
max_pooling2d_1 (MaxPooling2 (None, 32, 14, 14)        0         
_________________________________________________________________
dropout_1 (Dropout)          (None, 32, 14, 14)        0         
_________________________________________________________________
conv2d_2 (Conv2D)            (None, 32, 14, 14)        25632     
_________________________________________________________________
max_pooling2d_2 (MaxPooling2 (None, 32, 7, 7)          0         
_________________________________________________________________
dropout_2 (Dropout)          (None, 32, 7, 7)          0         
_________________________________________________________________
conv2d_3 (Conv2D)            (None, 64, 7, 7)          51264     
_________________________________________________________________
max_pooling2d_3 (MaxPooling2 (None, 64, 3, 3)          0         
_________________________________________________________________
dropout_3 (Dropout)          (None, 64, 3, 3)          0         
_________________________________________________________________
conv2d_4 (Conv2D)            (None, 128, 3, 3)         204928    
_________________________________________________________________
max_pooling2d_4 (MaxPooling2 (None, 128, 1, 1)         0         
_________________________________________________________________
flatten_1 (Flatten)          (None, 128)               0         
_________________________________________________________________
dense_1 (Dense)              (None, 128)               16512     
_________________________________________________________________
dropout_4 (Dropout)          (None, 128)               0         
_________________________________________________________________
dense_2 (Dense)              (None, 25)                3225      
=================================================================
Total params: 302,393
Trainable params: 302,393
Non-trainable params: 0
_________________________________________________________________
took 12.25283670425415 seconds
Train on 27455 samples, validate on 7172 samples
Epoch 1/15
 - 24s - loss: 3.1090 - acc: 0.0700 - val_loss: 2.4556 - val_acc: 0.2324
Epoch 2/15
 - 11s - loss: 1.5400 - acc: 0.4809 - val_loss: 0.7091 - val_acc: 0.7623
…
